…
"https://localhost:8080/"},"executionInfo":{"status":"ok","timestamp":1622552027407,"user_tz":-540,"elapsed":12,"user":{"displayName":"U주아","photoUrl":"","userId":"12711742093488869157"}},"outputId":"eec22187-40d6-455e-f051-ebff14d4b12b"},"source":["model.summary()"],"execution_count":21,"outputs":[{"output_type":"stream","text":["Model: \"sequential_5\"\n","_________________________________________________________________\n","Layer (type)                 Output Shape              Param #   \n","=================================================================\n","conv2d_23 (Conv2D)           (None, 148, 148, 64)      1792      \n","_________________________________________________________________\n","max_pooling2d_21 (MaxPooling (None, 74, 74, 64)        0         \n","_________________________________________________________________\n","conv2d_24 (Conv2D)           (None, 72, 72, 64)        36928     \n","_________________________________________________________________\n","max_pooling2d_22 (MaxPooling (None, 36, 36, 64)        0         \n","_________________________________________________________________\n","dropout_5 (Dropout)          (None, 36, 36, 64)        0         \n","_________________________________________________________________\n","conv2d_25 (Conv2D)           (None, 34, 34, 128)       73856     \n","_________________________________________________________________\n","max_pooling2d_23 (MaxPooling (None, 17, 17, 128)       0         \n","_________________________________________________________________\n","conv2d_26 (Conv2D)           (None, 15, 15, 128)       147584    \n","_________________________________________________________________\n","max_pooling2d_24 (MaxPooling (None, 7, 7, 128)         0         \n","_________________________________________________________________\n","dropout_6 (Dropout)          (None, 7, 7, 128)         0         \n","_________________________________________________________________\n","conv2d_27 (Conv2D)           (None, 5, 5, 256)         295168    \n","_________________________________________________________________\n","max_pooling2d_25 (MaxPooling (None, 2, 2, 256)         0         \n","_________________________________________________________________\n","flatten_5 (Flatten)          (None, 1024)              0         \n","_________________________________________________________________\n","dense_10 (Dense)             (None, 512)               524800    \n","_________________________________________________________________\n","dense_11 (Dense)             (None, 3)                 1539      \n","=================================================================\n","Total params: 1,081,667\n","Trainable params: 1,081,667\n","Non-trainable params: 0\n","_________________________________________________________________\n"],"name":"stdout"}]},{"cell_type":"code","metadata":{"id":"Zn_hRxC2rO0z","executionInfo":{"status":"ok","timestamp":1622553726846,"user_tz":-540,"elapsed":235,"use
…
0/"},"id":"mPDg5gAjrarI","executionInfo":{"status":"ok","timestamp":1622553729561,"user_tz":-540,"elapsed":242,"user":{"displayName":"U주아","photoUrl":"","userId":"12711742093488869157"}},"outputId":"8562516a-c419-4fa9-b583-2115764cca4d"},"source":["model2.summary()"],"execution_count":43,"outputs":[{"output_type":"stream","text":["Model: \"sequential_9\"\n","_________________________________________________________________\n","Layer (type)                 Output Shape              Param #   \n","=================================================================\n","conv2d_39 (Conv2D)           (None, 148, 148, 64)      1792      \n","_________________________________________________________________\n","max_pooling2d_36 (MaxPooling (None, 74, 74, 64)        0         \n","_________________________________________________________________\n","conv2d_40 (Conv2D)           (None, 72, 72, 64)        36928     \n","_________________________________________________________________\n","max_pooling2d_37 (MaxPooling (None, 36, 36, 64)        0         \n","_________________________________________________________________\n","conv2d_41 (Conv2D)           (None, 34, 34, 128)       73856     \n","_________________________________________________________________\n","max_pooling2d_38 (MaxPooling (None, 17, 17, 128)       0         \n","_________________________________________________________________\n","conv2d_42 (Conv2D)           (None, 15, 15, 128)       147584    \n","_________________________________________________________________\n","max_pooling2d_39 (MaxPooling (None, 7, 7, 128)         0         \n","_________________________________________________________________\n","dropout_11 (Dropout)         (None, 7, 7, 128)         0         \n","_________________________________________________________________\n","flatten_9 (Flatten)          (None, 6272)              0         \n","_________________________________________________________________\n","dense_18 (Dense)             (None, 512)               3211776   \n","_________________________________________________________________\n","dense_19 (Dense)             (None, 3)                 1539      \n","=================================================================\n","Total params: 3,473,475\n","Trainable params: 3,473,475\n","Non-trainable params: 0\n","_________________________________________________________________\n"],"name":"stdout"}]},{"cell_type":"markdown","metadata":{"id":"4NhjbLsU1Ll0"},"source":["## 5. 컴파일 (compile)"]},{"cell_type":"code","metadata":{"id":"yzw3sIaB1Ll0"
…
